examples/homework/critic_1_2000.pth (torch, 55119 bytes, 8 tensors)

conv1.0.weight f4 [8, 1, 2, 2]
000000 a0 6b 46 bb 3c c3 96 bd 67 9c 59 be c8 51 46 bd
       -0.0030276552 -0.07361457 -0.21251069 -0.048417836
000010 6c 96 08 be 3e 38 f3 bd a9 e3 87 3d 8e fc db 3d
       -0.13338631 -0.11875962 0.066352196 0.1074153
000020 59 c9 84 3e 10 dc 21 bf ab ed 18 be e3 a9 f8 3c
       0.25934866 -0.63226414 -0.14934413 0.030354446
000030 ad ca fc 3d 23 74 10 be 78 c8 1d bd 9a e7 6d be
       0.12343345 -0.14106803 -0.03852126 -0.2323288
000040 b5 73 9f 3d 1b 99 ea bf c2 e1 e0 3e 70 16 4f bf
       0.07785741 -1.8327974 0.4392224 -0.8089361
000050 4d eb ec be 77 d7 86 be 1c 1e 10 bc 6a 7d 98 be
       -0.4627327 -0.26336262 -0.008796241 -0.29783183
000060 42 06 fe bd 4b 1c 39 be 94 ed 08 3d 06 45 7a 3d
       -0.12403537 -0.18077199 0.033429697 0.061100982
000070 21 36 85 be 03 ea 89 3e ac a5 bc bb 5a 32 ad 3d
       -0.2601786 0.2693635 -0.0057570543 0.084568694

conv1.0.bias f4 [8]
000000 21 00 50 bc bb 55 45 bf d5 9c 12 bf ea b8 c5 3e
       -0.012695343 -0.7708394 -0.57270557 0.3861764
000010 8f ab 0d 3f 1f 85 8c 3e 5d ea 0a be 07 8f de be
       0.553399 0.27445313 -0.13565965 -0.43468496

conv2.0.weight f4 [16, 8, 2, 2]
000000 d5 23 36 be 4c c5 07 bf 02 3d c1 be aa 16 49 be
       -0.17787106 -0.53035426 -0.37741858 -0.19637552
000010 5d 95 3f be 95 e4 c3 3c 50 51 37 3e 10 c9 02 bd
       -0.18709321 0.023912707 0.17902112 -0.03193003
000020 2a 72 4c be aa 9e 40 be b7 a4 84 3e 2f b4 01 3f
       -0.19965425 -0.18810526 0.25906917 0.50665563
000030 e7 85 b7 be 3f 70 79 be bb 49 52 bf d2 60 9d be
       -0.35844347 -0.24359225 -0.82143754 -0.3073793
000040 4a 7a 18 3d 00 1e 66 38 e2 fd 2d be e7 db 7a bd
       0.037226 5.4864213e-05 -0.1699138 -0.06124487
000050 c7 06 38 be e2 9c 56 be ee f8 76 3c bd 4c 82 3e
       -0.17971335 -0.20958284 0.015073998 0.25449172
000060 db 5e 0a bf 97 bf 28 bd 41 5f 9a 3c 4b e2 be bd
       -0.5405099 -0.04119834 0.018844249 -0.09320506
000070 6c 4e ca be fa b1 8e 3c 8b 9e 32 bc 2b b4 92 be
       -0.39512956 0.01741885 -0.010902057 -0.28653082
000080 d6 e5 a2 bd a7 1e c9 bc 9f 9e 03 3d 84 4b 80 3d
       -0.07953994 -0.024550749 0.032133695 0.062644035
000090 fa 6a 00 3f 19 6c c1 3e 1a 32 15 be 8c 2c 8d be
       0.50163233 0.37777784 -0.14569893 -0.2757305
0000a0 bf 7d ea 3e 88 5b f5 3e 5e ba 95 be 80 97 b7 3b
       0.45799062 0.47921395 -0.2924375 0.005602777
0000b0 42 16 8f 3d 07 cd 1d be d1 32 4e bf a5 06 1f 3e
       0.06986667 -0.15410243 -0.8054629 0.15529878
0000c0 a8 85 b2 bb dd c2 31 3e eb 57 88 3e c5 43 e8 3d
       -0.005448062 0.1735949 0.26629576 0.11341051
0000d0 49 cd 44 3d 55 4a 99 bd f0 ba 69 3f 25 c2 e2 3e
       0.048047338 -0.07484881 0.9130087 0.44288746
0000e0 bb 68 0c 3e b7 6e 80 3e da a8 a4 bf ce d3 09 bf
       0.13711827 0.2508447 -1.286403 -0.53838813
0000f0 69 e6 a4 3e 80 61 87 3e 1c 14 01 3e 97 8a ae 3e
       0.3220704 0.26441574 0.12605327 0.3409011
000100 c2 de 66 3d dd 11 b0 3d d6 8d fb bc 96 a2 d9 3e
       0.056364782 0.08597157 -0.030707281 0.42506856
000110 c6 0a ca be 96 d0 83 3e 51 dd 22 3f a0 32 ea 3d
       -0.39461344 0.25745076 0.6361895 0.11435437
000120 c2 3d 7c 3f ee 79 0c be ec 70 4a 3e a4 fa e1 3e
       0.98531735 -0.13718387 0.19769639 0.44136536
000130 56 63 e9 be 6f 99 41 bf 0e 77 36 bf 5f 68 bb 3d
       -0.455836 -0.75624746 -0.71275413 0.091507666
000140 cc b4 e2 be 3e 18 94 be c0 b1 f9 bd 37 5d 55 be
       -0.44278562 -0.28924745 -0.12192106 -0.2083634
000150 34 73 65 3f 15 9a 53 3e 35 5a 21 be 5b 6f 7d 3e
       0.8962891 0.20664246 -0.15757068 0.2474951
000160 84 ea 6c be 7c 91 b2 3a 06 0d 84 3c 57 d6 27 3e
       -0.23136336 0.001362368 0.016119491 0.16390358
000170 07 80 2e be a2 df b8 be 56 fa 8f 3c f5 8c 6b be
       -0.17041026 -0.36108118 0.017575424 -0.2300299
000180 bc 0a 1a 3e e9 be c4 bc b8 e9 de bd 8f 03 82 3d
       0.15043157 -0.024016814 -0.10884422 0.06348335
000190 a9 14 37 be a7 0f 35 3e 4e ba b0 bd 3c 4f 85 3d
       -0.17878975 0.17681752 -0.08629285 0.065092534
0001a0 e9 19 4b be 1d 45 6c be 1c f4 12 be c2 00 e8 3d
       -0.19834103 -0.2307324 -0.14350933 0.113282695
0001b0 bc 49 42 3e 30 5d 01 3f f0 f2 a1 be 9a cd 15 3f
       0.1897344 0.5053282 -0.3163066 0.5851685
0001c0 98 32 61 3e 01 fa 67 3e 11 08 85 3d 27 e5 30 3e
       0.21991956 0.22653963 0.06495679 0.17274915
0001d0 57 42 05 3f df 1a b7 be be b6 d4 be ac 9b 90 be
       0.5205435 -0.3576269 -0.4154567 -0.28243768
0001e0 17 68 bd be e3 d8 2a 3e 70 11 3c 3e f3 84 e1 3e
       -0.36993477 0.16684298 0.18366027 0.44046745
0001f0 df ad 81 bf ab ad b5 3e e9 9c e3 bc 76 f6 ad 3d
       -1.0131186 0.3548406 -0.027784782 0.08494274
000200 f6 bc 1c bc 3f 62 5c be 68 e4 7d 3c 44 de 88 3d
       -0.009566536 -0.21521853 0.015496351 0.06683019
000210 8b 31 ba 3d 96 22 20 3e e8 f7 28 3e e5 1c bb bd
       0.09091481 0.15638193 0.16500819 -0.091363706
000220 39 a4 41 3f ae dd ef bc 3f 92 e5 3e 83 62 e5 3d
       0.7564121 -0.02928051 0.4483814 0.1120043
000230 19 47 e9 3e ec 38 26 bf 2b ca db be b8 f4 e7 be
       0.45562056 -0.64930606 -0.4292768 -0.45303893
000240 c4 cd 99 be 51 df 80 3c 27 3e 81 be de f5 24 be
       -0.300398 0.015731486 -0.2524273 -0.16109416
000250 21 21 ea 3d 35 b8 8a 3e b2 6a 39 3f 76 98 b7 3e
       0.114321 0.27093664 0.7242843 0.35858506
000260 22 8e 0a bf eb 80 31 bd 85 51 6c bd 1d ee d3 be
       -0.5412313 -0.043335836 -0.05769493 -0.41392604
000270 9b 67 b5 be a9 06 40 be 31 d1 67 be 1b bd 99 be
       -0.35430607 -0.1875254 -0.22638394 -0.3002709
000280 13 5f ef bd 0d 91 f6 be a2 d4 88 3e ca b8 7c be
       -0.11688056 -0.4815754 0.26724726 -0.24679866
000290 a6 73 f7 be ca b0 3f 3b 8f ca fa 3e 78 a6 99 bd
       -0.4833042 0.0029249662 0.48982665 -0.075024545
0002a0 5c 12 36 3e b6 40 cd 3d 92 63 56 3f 05 8a 11 3e
       0.17780441 0.10022108 0.8374568 0.14212807
0002b0 ee 17 3c bf 86 cd 31 be 97 12 82 3e c5 46 bc be
       -0.73474014 -0.17363557 0.25404808 -0.36772743
0002c0 e0 f2 c6 bd 43 f2 01 bf 70 90 88 be 48 7d 14 be
       -0.097142935 -0.5076029 -0.26672697 -0.14500916
0002d0 a6 1d 1c 3d fa 94 3a 3f 37 77 01 3f d0 83 40 3f
       0.038114212 0.7288357 0.5057253 0.7520113
0002e0 0c c1 08 3e 88 da b2 be d8 67 92 3d 88 85 af be
       0.13354892 -0.3493235 0.07148713 -0.34281564
0002f0 c9 00 b8 bd ed f2 8d bd 5f f2 8f be 2f 0c 0d 3e
       -0.08984525 -0.069311 -0.28114602 0.13774179
000300 4e 63 4d bd 9f 0b e0 be 58 8e 8b bf f1 16 97 be
       -0.050143532 -0.43758866 -1.0902815 -0.2950969
000310 78 70 c4 3e a9 30 8a be 25 8b f9 3e 50 24 43 bf
       0.38367057 -0.2699025 0.4873897 -0.76227283
000320 ba ed 90 3e 13 fc 96 be 32 e4 07 3f 09 69 85 bd
       0.2830637 -0.29489192 0.53082573 -0.065141745
000330 49 ff af bf 62 eb b2 be fa 98 81 be a1 99 6c be
       -1.3749782 -0.34945208 -0.25312024 -0.2310548
000340 11 e2 d8 bd 57 a8 0c 3e 91 e6 a5 bc 2e c0 ac 3e
       -0.10589994 0.13736092 -0.020251544 0.3374037
000350 07 d9 02 bd e9 b3 f2 3e c3 e6 ed bd fa 09 f7 be
       -0.031945255 0.47402886 -0.1161628 -0.482498
000360 1d 67 06 be e0 75 d1 be d2 8d 1b bd f0 36 37 3f
       -0.13125272 -0.40910244 -0.037977047 0.715682
000370 47 ca eb 3d f6 af 64 3d ed c3 2a bf 2b 67 90 3e
       0.11513191 0.055831872 -0.6670521 0.2820371
000380 a9 c6 cb 3d 1a ec 1d be 9e bd b1 3e 65 42 54 bd
       0.09950001 -0.15422097 0.3471498 -0.05182113
000390 43 30 e5 3c 27 f9 23 3e 18 e9 2f 3d d5 f6 fb 3e
       0.027977115 0.16013013 0.042946905 0.49211755
0003a0 d0 ee 98 3b 4a a5 9d bc a0 71 24 3d 5a 5b 26 be
       0.0046671405 -0.019243855 0.040147424 -0.16245785
0003b0 ca 20 14 bf 9a 6c 29 bd 40 ec bb be 70 df 10 3f
       -0.5786253 -0.041363336 -0.36703682 0.5659094
0003c0 17 a9 93 3d 7b 23 e3 3e 28 6c 9a 3e c1 d6 27 3f
       0.07209986 0.44363007 0.30160642 0.65562063
0003d0 bc a1 6e be 98 0f 81 bd ac 4a c8 be 56 62 a9 be
       -0.23303884 -0.063018024 -0.3911947 -0.33082837
0003e0 a6 a6 49 bd 4e d8 e4 3e 94 a4 ca be 95 7e 01 3f
       -0.049231194 0.44696277 -0.39578688 0.50583774
0003f0 2b 6e f8 3d f0 84 9e bd 4f 5e 96 3e dc d8 5f 3e
       0.12130388 -0.077401996 0.29368827 0.21860069

conv2.0.bias f4 [16]
000000 38 cf 28 3e 44 a9 e5 3c 38 21 70 bf 0e 82 64 3e
       0.16485298 0.028034814 -0.9380069 0.22315237
000010 d4 fc 28 bf aa a3 5a bf 18 9e ac be 82 55 9b 3d
       -0.66010785 -0.8540598 -0.33714366 0.07584669
000020 36 92 a9 be 28 47 09 3b 6f e4 43 bf 82 42 3b bf
       -0.33119363 0.0020946953 -0.76520437 -0.7314836
000030 98 6c 94 3e bf 72 5c 3e 63 72 34 bf 0a 8a 7c 3c
       0.289891 0.21528147 -0.7048704 0.01541377

linear_in.weight f4 [64, 192]
000000 10 d4 ad 3e 37 5c 7c be b3 ec 87 be 27 d3 bb bd
       0.33950853 -0.24644552 -0.26547775 -0.091711335
000010 b4 91 16 bf d3 e7 b6 be c4 c6 92 be d6 3b a1 3b
       -0.58816075 -0.35723743 -0.2866727 0.004920463
000020 ea b3 20 3e 61 b4 76 3e f4 65 13 bc 7c 7c d8 3d
       0.15693632 0.24092247 -0.0089964755 0.105706185
000030 2f 00 0a be 70 2b 48 bd ab c8 ad be 08 7e 8e 3e
       -0.13476633 -0.04886955 -0.3394216 0.2783053
000040 9f 4c f8 3e a9 7d 63 3d 33 29 ea 3b fa b7 03 3e
       0.48495957 0.05553976 0.0071460246 0.1286315
000050 02 e3 97 3d a6 1c 87 3e 8b d6 d8 bd 48 7e 43 3e
       0.07416345 0.26389045 -0.10587796 0.19091141
000060 c1 5a ad 3e eb 28 48 be c6 48 2b bd 07 36 d1 3d
       0.33858302 -0.19546859 -0.04181745 0.10215383
000070 9f aa 10 3e 53 83 24 bf d1 dc 05 3d 01 f8 6e 3d
       0.14127587 -0.64262885 0.03268129 0.058341984
000080 a2 46 c3 3e c6 02 1d 3d 6a 32 f7 3c e9 58 17 3f
       0.38139826 0.038332723 0.030175406 0.5912004
000090 9b ab 92 bd b6 45 7f 3d 2c 4d 3e 3e 91 09 a6 bc
       -0.071616374 0.06232234 0.18584126 -0.020268233
0000a0 0a b8 8a 3d f0 d9 d0 3d d8 ef 64 bd c4 00 e2 3e
       0.06773384 0.10197818 -0.055892795 0.4414121
0000b0 eb bc 89 3e 97 d6 b4 bd cb 2b a1 bd 72 e0 46 bc
       0.26901945 -0.08829992 -0.07869681 -0.012138473
0000c0 4c de 34 bf 51 44 29 3e 0f b9 83 be 87 2e 39 be
       -0.706517 0.16529967 -0.25727126 -0.18084155
0000d0 ad ed ed 3e 16 a2 29 bf 34 85 15 3f d2 63 41 be
       0.46470395 -0.6626295 0.58406377 -0.18885735
0000e0 f4 63 2f bf c6 69 1d be 3e 88 e7 be 08 a0 19 3e
       -0.6851189 -0.1537238 -0.45221132 0.15002453
0000f0 8d ca b9 be bc 2c 58 bf ba bc 82 be ab 1f 01 be
       -0.36287346 -0.8444326 -0.25534612 -0.12609737
000100 ff 03 83 be 90 17 0b 3f c9 ce 31 3e 47 09 19 3d
       -0.25588986 0.5433283 0.17364039 0.037362363
000110 d6 53 37 bc 0d 58 03 be 03 cb 46 be 1a 3e 50 3d
       -0.011189422 -0.12826557 -0.1941338 0.050840475
000120 be ee 63 3d a9 99 dc be ea 15 81 bd 47 42 19 3e
       0.055647604 -0.43085983 -0.06303008 0.14966689
000130 3a d1 db 3c 8b 71 1a be c2 71 98 3d 50 5b 9d 3e
       0.026833165 -0.15082376 0.074435726 0.30733728
000140 ed e4 5e 3d be 5d f8 bd e2 8f 0d bf c6 2a 94 bb
       0.05441754 -0.12127255 -0.5529767 -0.0045217006
000150 23 4e 18 be 8a 49 66 bb c1 ac 99 bd ff 52 ea 3e
       -0.14873557 -0.0035139048 -0.07503653 0.45766446
000160 50 72 ca 3d 32 09 2c 3d d8 35 54 3a aa 89 10 be
       0.09885085 0.042000957 0.00080951815 -0.14115015
000170 f6 58 99 be 64 92 84 be 79 a7 d8 be 37 5a 9b be
       -0.29950684 -0.25892937 -0.42315271 -0.30342266
000180 90 d9 9c bd aa a1 af be 37 37 ab 3e e9 77 4c 3e
       -0.07658684 -0.34303027 0.33440563 0.19967617
000190 f2 ac 57 3e 30 37 94 be 4c d5 1e 3f de 41 8b 3c
       0.21062067 -0.28948355 0.62044215 0.016999181
0001a0 32 ac 0e bf e6 ab 97 3e 67 40 dd 3e 9e 8c 1f bf
       -0.557315 0.29623336 0.43213198 -0.6232394
0001b0 0c fd 38 3d 6e 4d 47 be c8 6f 01 3e 6c d2 01 be
       0.0451632 -0.19463131 0.12640297 -0.12677926
0001c0 84 c7 04 3f e6 ac 1c 3f 50 e9 25 bd 85 9f 01 3e
       0.51866937 0.6120132 -0.040505707 0.12658508
0001d0 37 b7 22 bc 08 9d 02 be 37 c2 37 be a3 de 8f 3d
       -0.009931377 -0.12755215 -0.17945181 0.070248865
0001e0 0c 84 4d 3d 8d bf 76 be 21 d9 c0 3e 74 f0 6e 3e
       0.050174758 -0.24096508 0.37665656 0.23333913
0001f0 30 37 8a be 95 03 0f 3e 23 fa 36 3f a4 73 a7 be
       -0.2699523 0.1396621 0.7147543 -0.32705414
000200 6d 11 83 3c 88 2f cd 3e 30 0c a8 3e 03 5f 34 bf
       0.01599952 0.40075326 0.32821798 -0.70457476
000210 e0 c3 37 3f 16 0a 0d 3f 7f 93 0a 3e 3f 51 7b 3c
       0.71783257 0.55093515 0.13532828 0.015339195
000220 ba 3c 3c 3f 24 b0 9e bc 18 14 16 bf d9 38 1a be
       0.7353016 -0.0193711 -0.5862441 -0.15060748
000230 d4 4e 71 3e 56 3a 09 bf 2e ed 2e be 0f e7 1a bd
       0.23565227 -0.5360464 -0.17082664 -0.03781801
000240 5a 6f 75 3d 4b 0f c8 bd be fd 8c bd 4e 05 cc bd
       0.059920646 -0.09768542 -0.06884335 -0.09961949
000250 03 8a 47 be 62 22 2b bd 49 2d 41 3c 8a 59 c2 3c
       -0.19486241 -0.041780837 0.011790582 0.023724336
000260 3c 9a 65 bd be c5 99 bd 12 ed 41 3d 30 fa 10 bf
       -0.056055292 -0.075084195 0.04734523 -0.56631756
000270 74 3c 4e 3e 26 1d 48 be 5a 99 c2 bd 60 1f 9f 3d
       0.20140249 -0.19542369 -0.09501906 0.07769656
000280 04 eb f7 bc b9 31 0b 3e b8 27 a5 bc 38 a2 01 be
       -0.030263431 0.13593186 -0.020160541 -0.12659538
000290 a7 9e 2a 3e 05 56 34 3d 52 9a 84 be 7c 23 c9 bd
       0.16662084 0.044027347 -0.25898987 -0.09821221
0002a0 c7 74 66 3e c0 67 a6 bc 79 f6 14 bf 1d d0 32 3f
       0.22505485 -0.020313144 -0.5818859 0.69848806
0002b0 6d 72 04 3f cc 5b 5e be 76 5b 20 bf e5 7a 99 3e
       0.517371 -0.21714705 -0.6263956 0.29976574
0002c0 fd 62 9e 3c 59 bc f2 bd e0 7b 0e bf d4 82 16 3e
       0.01933431 -0.11852331 -0.5565777 0.14698344
0002d0 25 b3 e1 3e d8 d3 e4 3e 36 5d 9d bd a5 2e 1f bd
       0.4408199 0.44692874 -0.07683794 -0.038862843
0002e0 cd a1 2e be 62 02 db 3e 3a a1 13 3c 91 bf 36 3e
       -0.1705391 0.42775255 0.009010607 0.17846514
0002f0 b7 da ed 3d cc 43 9b 3e 9e b4 f2 3d 57 2d 99 bd
       0.11613982 0.30325162 0.11850856 -0.07479351
000300 e5 03 08 3e 63 c7 a5 3c 85 bb d8 3d a0 20 40 bd
       0.13282736 0.020236677 0.105826415 -0.046906114
000310 02 bd 27 3f 8e 85 26 3d 9e 89 68 bd d2 90 2d bd
       0.6552278 0.04065471 -0.056771867 -0.04237444
000320 fd 6e 1f be d6 0c 00 be ca cf 2a be 1e 09 06 be
       -0.15569682 -0.12504897 -0.16680828 -0.13089415
000330 c6 4c e8 3c 98 2a 17 be c7 62 c6 3d 6f 32 e5 bd
       0.02835692 -0.14762342 0.09686809 -0.1119126
000340 5c e0 d3 bd e2 9d 85 bd 6c 69 1f 3d 8c 15 0e 3f
       -0.103455275 -0.065242544 0.038918898 0.5550163
000350 6a 62 0f be e7 2a 64 bd da bb 9e 3e cd 09 e5 3c
       -0.14002386 -0.055704977 0.31002694 0.027958775
000360 85 f3 4d be 94 bf 99 bc c6 cf 5e be 7e 0f 1a 3d
       -0.20112427 -0.01876811 -0.21758947 0.03761243
000370 b6 80 01 be 58 90 4d 3e 23 e5 21 be 17 d1 92 3d
       -0.12646756 0.20074594 -0.15810065 0.07168787
000380 fe 36 17 bf 4c ee f7 3d 9b 12 6a 3e 68 2b 61 be
       -0.59068286 0.121059984 0.2285866 -0.21989214
000390 be aa 20 3b 05 3d 9c bc 2c 92 ed bd 61 9f 1c 3e
       0.0024515833 -0.019072065 -0.11600146 0.15295173
0003a0 14 f3 be 3c fb 9c a1 3d 2c ec 8f ba 9c 16 1f bd
       0.023309268 0.0789127 -0.0010980419 -0.03883992
0003b0 3a 8c 60 be 46 44 aa 3c 14 7a 27 3c e4 23 41 3d
       -0.21928492 0.020784508 0.010221977 0.04715337
0003c0 94 d9 14 3f 09 73 04 bd d9 6d b3 3c 91 fb e2 bc
       0.581445 -0.03233627 0.021902965 -0.027707847
0003d0 20 4a 84 be bc 4a 19 3f eb 11 1d be c6 5a ef 3e
       -0.25837803 0.5987966 -0.15338866 0.46748942
0003e0 d1 6c 92 3e f4 f9 27 bb f5 75 a1 3d e7 e1 a3 bf
       0.28598645 -0.0025631161 0.07883827 -1.2803315
0003f0 59 87 f1 3e e7 14 99 3f ff 3c 98 3e b3 14 84 3f
       0.47173575 1.1959504 0.29734036 1.0318817

linear_in.bias f4 [64]
000000 5f d9 8a 3d dc 9c 2d 3c 75 75 9b 3d 7e 67 c1 3c
       0.067797415 0.01059648 0.075907625 0.02360892
000010 8d e7 08 be 89 37 b6 3c c2 ed 4e bd 82 86 03 3e
       -0.1336958 0.022243278 -0.050519712 0.1284428
000020 61 ec cc bc 4a 0c b8 3c f1 81 1e 3e c4 64 d6 3b
       -0.025015058 0.022466797 0.15479256 0.006542774
000030 8d 39 b7 bd 9d 65 a0 3d 9a e7 31 bc 40 2f a5 bb
       -0.08946524 0.07831881 -0.010858441 -0.005041033
000040 b6 1a c6 3c a4 7c 0e 3e bf b1 cf bd c5 8b c6 3d
       0.024182659 0.13914734 -0.10141324 0.09694628
000050 85 5f f4 bc fb 1f 86 bd e5 01 50 be 8f 66 21 3d
       -0.029830704 -0.065490685 -0.20313223 0.039404448
000060 3d df 72 3c 57 1b 6d bd b2 ef 02 be 9c 19 74 ba
       0.014823732 -0.0578874 -0.12786749 -0.00093116774
000070 af 7c b1 bd 64 7d af 3d c0 bf 32 3d ce e1 50 3c
       -0.0866636 0.08568838 0.0436399 0.0127491485
000080 ce dd b2 3d ad fe 2c 3e 93 87 45 3e e1 df be 3d
       0.08733712 0.16894026 0.19289999 0.09320045
000090 91 20 c7 3d cb f4 d0 3d 80 29 3c bc 57 43 9b 3b
       0.097230084 0.102029406 -0.011484504 0.004738252
0000a0 f6 31 88 3d 87 32 98 3d 94 3d a8 3d 3c ad 60 3e
       0.06650154 0.07431512 0.0821487 0.21941084
0000b0 70 f5 66 3c 41 1b 9f bc 71 4f 30 bd cb dc a7 3d
       0.014096603 -0.019422175 -0.04304451 0.0819641
0000c0 ef 46 fa 3b e3 22 96 3c d2 d7 a4 bd 7e 72 83 bd
       0.0076378505 0.018327182 -0.08048977 -0.06418322
0000d0 34 fd 80 3d c6 c0 19 3d 44 e5 42 bc b5 e6 cb 3d
       0.06298295 0.03753736 -0.0118954815 0.09956113
0000e0 60 af 51 3d 2c e6 44 bd 6c 93 81 3d 65 2b a8 bc
       0.05119264 -0.04807107 0.063269466 -0.020528505
0000f0 2f 9e 6e 3d 54 79 5d bc 46 98 05 bd 57 f4 dd 3c
       0.058256324 -0.013517696 -0.032615922 0.02709405

linear_out.weight f4 [4, 64]
000000 4c f7 2a 3c 51 50 a3 bc a9 9f 88 bc 53 94 7e 3e
       0.010434937 -0.019935759 -0.016677694 0.24861269
000010 59 2b 12 3e e2 98 e8 3d be 8b 0d be 19 ce 73 3c
       0.14274348 0.11357285 -0.13822839 0.0148806805
000020 15 2d 54 3e 61 82 08 be e0 3c 58 bd 1b 2f d6 bc
       0.20720322 -0.13330986 -0.05279243 -0.026145509
000030 8a e0 9c bd 5f 9f 92 be 29 cf 43 be 84 b8 98 be
       -0.07660015 -0.28637215 -0.19121994 -0.29828274
000040 b4 76 9b bc 10 f1 c4 be 11 61 55 3e 06 4c 54 bd
       -0.0189775 -0.38465166 0.20837809 -0.051830314
000050 d6 a8 82 3d db 63 02 3d 94 f4 48 3c 2d e2 d5 bd
       0.06379859 0.03183351 0.012265343 -0.1044353
000060 96 9d a1 bd 4c 3a 09 3d 56 bb 77 3d b8 9e 9d bd
       -0.07891385 0.03350286 0.06048139 -0.07696289
000070 2b 71 86 bd e5 a2 9f 3d fd f1 43 3e 7b 15 e8 bd
       -0.06564554 0.077947415 0.1913528 -0.11332222
000080 45 3f c6 3e e6 48 2b 3d 14 2b ab 3e 83 db 29 be
       0.38720146 0.04181757 0.33431304 -0.16587643
000090 48 c9 3a 3d c2 fe 22 be 9f 7a 68 3c 7d 5e b0 bb
       0.045602113 -0.15917495 0.014189391 -0.0053823576
0000a0 b9 e5 5f 3d 5a 8d 8d bd a0 a0 6a 3d c8 29 8c 3e
       0.05466244 -0.06911726 0.05728209 0.27375627
0000b0 3f 19 e3 bc 05 08 93 3d 34 28 75 3c 90 b6 2e bd
       -0.027722 0.07179264 0.014963198 -0.042654574
0000c0 82 a7 52 bd 54 b4 b4 bd da 81 50 3e 3e 71 e1 bd
       -0.05142928 -0.08823457 0.20362034 -0.11007927
0000d0 94 37 15 3f 26 4e 41 3c 2a 1f 4f be 6b 23 09 3e
       0.5828793 0.011798417 -0.20226732 0.13392417
0000e0 28 12 12 3e eb 66 2d be ab 8a da 3d 02 08 9f bc
       0.14264739 -0.16933791 0.1067098 -0.019412998
0000f0 ed c6 2a 3e 83 a3 7e be 4b 1f 5d 3d 53 db 12 be
       0.16677447 -0.24867062 0.05398492 -0.14341478
000100 b4 15 2f be 1f 64 26 3e 98 53 0d 3d cc 82 51 bd
       -0.17098123 0.1624913 0.03450355 -0.05115013
000110 35 31 89 bd be bb 93 bd d0 dd 7b be f9 f6 12 be
       -0.066988386 -0.07213543 -0.24596334 -0.14352025
000120 b5 b8 c5 3c 2c 9f dd 3d ff ec 99 bd 55 52 07 be
       0.024135927 0.10821375 -0.075159065 -0.13215001
000130 8e 50 8d 3d 3f bb a0 bc ec b4 92 bd 5b 0a cf bd
       0.0690013 -0.019620536 -0.07163414 -0.10109397
000140 68 42 07 be 1c 1d 58 be 3f 28 ce bd 9d 05 95 bb
       -0.13208926 -0.21104854 -0.1006627 -0.0045477883
000150 40 79 db 3d 97 be 46 3c 28 d2 72 3d 6e 5d 1a 3d
       0.10716486 0.012130401 0.059282452 0.037686758
000160 6c d6 e4 3d 0d 3e 32 be 9c fe 1e bd 17 76 87 3c
       0.1117371 -0.17406483 -0.038817033 0.016535802
000170 91 8b 1b be 6b e0 c3 3e c0 15 da bd ac 39 94 3d
       -0.15189959 0.38257155 -0.1064868 0.072375625
000180 30 37 ca 3e 2c 29 1a 3e 67 51 b0 3e f4 68 53 bd
       0.3949523 0.15054768 0.34437105 -0.051613763
000190 ca a9 fc 3c e7 ef 13 3e 84 9b 76 bd 8b 95 00 be
       0.03084268 0.14446984 -0.060206905 -0.12557046
0001a0 8b 3a c7 3d 83 3b 3b 3e dc 07 8d be 08 38 67 3e
       0.09727963 0.1828442 -0.2754506 0.22579968
0001b0 d7 60 60 bd 92 c8 b7 3d cc 48 01 3d 90 6e b9 3d
       -0.054779854 0.089738026 0.031563565 0.09054291
0001c0 e6 fc c4 3d 30 87 33 3e 3d ef 18 be 98 d4 f7 3c
       0.09618549 0.17532039 -0.14935012 0.03025274
0001d0 28 33 99 3e ce 8d 26 bd 1c ac e9 3d d3 5e 30 be
       0.29921842 -0.04066258 0.114097804 -0.17223673
0001e0 3c 33 c7 bc 03 39 c8 bd 1c 34 a8 3d 77 86 11 3c
       -0.024316423 -0.09776499 0.08213064 0.008882157
0001f0 81 5c 22 be e7 18 82 3e 3c c5 5a 3d 8e b3 a2 3d
       -0.158556 0.25409624 0.053410754 0.079444036
000200 7c 1c b7 3d 16 1a db 3c 14 10 52 3d 52 99 cc 3e
       0.0894098 0.026745837 0.051284865 0.39960724
000210 37 ed b9 bd 8e 68 49 bd 8a 37 0e bd 5e 36 a5 3c
       -0.09078448 -0.049171977 -0.034720935 0.020167526
000220 69 86 35 3e fa de 1a bd 9e 16 c8 bd f6 52 6d 3d
       0.17727055 -0.037810303 -0.09769939 0.057940446
000230 1c 19 4a 3d fb 92 f4 3d 45 c4 ad be 2c 19 12 be
       0.049340352 0.11942097 -0.33938804 -0.14267415
000240 d4 ce 4d 3e b0 e7 0a be 86 8d 7e bc 25 8c 16 3e
       0.2009843 -0.13564944 -0.0155366715 0.14701898
000250 da d9 1c be 4c bc d0 bd 0d 02 46 3d 20 ac 39 3e
       -0.15317479 -0.10192165 0.0483418 0.18132067
000260 b5 1b 4c bd d0 f8 04 3c 2a 25 59 3c 4f 73 c2 3d
       -0.04983111 0.008115962 0.0132534895 0.094946496
000270 f5 8f 32 bc ca 30 c2 3d d2 cd cd bc 5a 91 1c be
       -0.01089858 0.09481962 -0.025122557 -0.15289822
000280 ff 90 e8 3e 48 6e ba 3d 66 16 de 3d 10 b7 ac 3d
       0.45423123 0.09103066 0.10844116 0.08433354
000290 12 dd 81 3c db 82 a9 bc 38 01 2a 3e 70 25 b2 3a
       0.015852485 -0.02069228 0.16602027 0.001359148
0002a0 b7 0f 00 be 89 20 1b 3e 6c 02 84 3c e0 76 da 3e
       -0.12505995 0.1514913 0.016114436 0.4266882
0002b0 75 96 aa bc 78 5b b5 bd ec b9 19 bd 66 91 93 3d
       -0.020823697 -0.08855337 -0.037530825 0.07205467
0002c0 f6 a5 85 bd 74 ed 6c 3d d8 b6 8f 3c 2c 9d 8e bc
       -0.06525795 0.05784364 0.017543241 -0.01740893
0002d0 ad 99 dc 3e 10 2a af 3c 42 12 03 3e bd d1 15 3e
       0.43085995 0.021382362 0.12799934 0.1463079
0002e0 53 7b 09 bd 01 61 b3 3d 59 3a 5c 3e f2 ca 74 3c
       -0.033564877 0.087587364 0.21506633 0.014940964
0002f0 2b 4f 1b be 2c 34 38 be d6 c2 bd 3c 1f 6e 48 3d
       -0.15166919 -0.17988652 0.023164194 0.048933145
000300 79 0a 87 3d d4 a2 ae 3c 05 41 82 bd 6d 70 ef bd
       0.065937944 0.021317877 -0.06360058 -0.116913654
000310 09 94 d2 bd 99 63 71 3c 5d 5f 6e 3d 42 a5 31 3e
       -0.10282142 0.014733219 0.058196414 0.17348197
000320 62 31 75 be 60 17 d5 3c 66 80 b8 3a 3b 26 30 3e
       -0.2394462 0.026012123 0.0014076352 0.17202084
000330 ba d1 1b bd ef 78 8e 3e e7 af 70 3e ee 3d 31 be
       -0.038041808 0.2782664 0.23504601 -0.1730878
000340 84 89 96 3d b0 84 a4 bd bc 6f b0 bd 80 27 8f 3d
       0.07350448 -0.08033121 -0.08615062 0.06989956
000350 f7 c7 30 bd a6 68 9a 3b 5d 4e c0 bd 47 a8 53 bb
       -0.04315945 0.004712182 -0.093899466 -0.0032296346
000360 1c 6c 9c 3d 8e e8 59 3d a9 3b 0a bc 2f e8 38 bc
       0.07637808 0.053200297 -0.008437076 -0.011285826
000370 72 d8 aa bb ef cb df 3e aa d9 eb bd 28 0b e1 3c
       -0.0052137906 0.43710276 -0.115161255 0.02747114
000380 77 cf 8c 3e 59 4e 2e 3d 62 0d 10 3f 21 ad 33 3e
       0.27502033 0.042555187 0.5627042 0.17546512
000390 10 59 0e 3e a3 25 88 3d b8 0e a1 3d 32 dc b9 bd
       0.13901162 0.06647804 0.078641355 -0.09075202
0003a0 83 44 d1 bd 23 17 03 bd 20 c3 fd 3d c4 28 d5 3e
       -0.10218146 -0.032004487 0.12390733 0.41632664
0003b0 ab b6 a7 3d 02 d8 8b bd 46 f3 57 bb a5 29 05 be
       0.08189138 -0.068283096 -0.0032951399 -0.13004167
0003c0 ef b1 87 3c 32 8a 64 3d f7 00 23 be 90 60 0d 3d
       0.016564338 0.055795856 -0.15918337 0.034515917
0003d0 cf 0f af 3e b3 31 24 3e c9 8e ed 3b 83 3c 6c 3c
       0.34191748 0.16034584 0.0072496873 0.014418724
0003e0 85 a8 bb bd 36 2e 39 bd 51 c2 f1 3c d3 ec 84 3b
       -0.09163002 -0.045210086 0.029511603 0.004056552
0003f0 76 f1 ad 3d 0c 77 53 3d bd d7 85 bc 0d 7c 45 3b
       0.08493321 0.051627204 -0.016338224 0.0030133754

linear_out.bias f4 [4]
000000 26 4d d2 bd ee 63 bb bd 28 fc 5c be 08 ed 42 bc
       -0.10268621 -0.091499195 -0.21580565 -0.011897333
